Model: "sequential"
_________________________________________________________________
 Layer (type)                Output Shape              Param #   
=================================================================
 embedding (Embedding)       (None, 50, 50)            614150    
                                                                 
 bidirectional (Bidirectiona  (None, 50, 200)          120800    
 l)                                                              
                                                                 
 dropout (Dropout)           (None, 50, 200)           0         
                                                                 
 lstm_1 (LSTM)               (None, 120)               154080    
                                                                 
 dense (Dense)               (None, 140)               16940     
                                                                 
 dense_1 (Dense)             (None, 12283)             1731903   
                                                                 
=================================================================
Total params: 2,637,873
Trainable params: 2,637,873
Non-trainable params: 0
_________________________________________________________________
235/235 [==============================] - 21s 81ms/step - loss: 7.0320 - accuracy: 0.0653
Epoch 2/500
235/235 [==============================] - 13s 54ms/step - loss: 6.5210 - accuracy: 0.0713
…
