Model: "sequential"
_________________________________________________________________
 Layer (type)                Output Shape              Param #   
=================================================================
 embedding (Embedding)       (None, 50, 50)            614150    
                                                                 
 gru (GRU)                   (None, 50, 100)           45600     
                                                                 
 dropout (Dropout)           (None, 50, 100)           0         
                                                                 
 gru_1 (GRU)                 (None, 120)               79920     
                                                                 
 dense (Dense)               (None, 140)               16940     
                                                                 
 dense_1 (Dense)             (None, 12283)             1731903   
                                                                 
=================================================================
Total params: 2,488,513
Trainable params: 2,488,513
Non-trainable params: 0
_________________________________________________________________
235/235 [==============================] - 21s 81ms/step - loss: 7.1115 - accuracy: 0.0614
Epoch 2/500
235/235 [==============================] - 9s 40ms/step - loss: 6.7657 - accuracy: 0.0657
…
