Model: "sequential"
_________________________________________________________________
 Layer (type)                Output Shape              Param #   
=================================================================
 embedding (Embedding)       (None, 50, 50)            614150    
                                                                 
 lstm (LSTM)                 (None, 50, 100)           60400     
                                                                 
 dropout (Dropout)           (None, 50, 100)           0         
                                                                 
 lstm_1 (LSTM)               (None, 120)               106080    
                                                                 
 dense (Dense)               (None, 140)               16940     
                                                                 
 dense_1 (Dense)             (None, 12283)             1731903   
                                                                 
=================================================================
Total params: 2,529,473
Trainable params: 2,529,473
Non-trainable params: 0
_________________________________________________________________
Epoch 1/700
235/235 [==============================] - 22s 87ms/step - loss: 7.0856 - accuracy: 0.0651
Epoch 2/700
235/235 [==============================] - 10s 43ms/step - loss: 6.6329 - accuracy: 0.0658
…
